…
      "outputs": [
        {
          "output_type": "stream",
          "name": "stdout",
          "text": [
            "Model: \"model_5\"\n",
            "_________________________________________________________________\n",
            " Layer (type)                Output Shape              Param #   \n",
            "=================================================================\n",
            " input (InputLayer)          [(None, 28, 28)]          0         \n",
            "                                                                 \n",
            " flatten (Flatten)           (None, 784)               0         \n",
            "                                                                 \n",
            " hidden1 (Dense)             (None, 256)               200960    \n",
            "                                                                 \n",
            " batch_normalization_20 (Bat  (None, 256)              1024      \n",
            " chNormalization)                                                \n",
            "                                                                 \n",
            " activation_20 (Activation)  (None, 256)               0         \n",
            "                                                                 \n",
            " dropout_20 (Dropout)        (None, 256)               0         \n",
            "                                                                 \n",
            " hidden2 (Dense)             (None, 100)               25700     \n",
            "                                                                 \n",
            " batch_normalization_21 (Bat  (None, 100)              400       \n",
            " chNormalization)                                                \n",
            "                                                                 \n",
            " activation_21 (Activation)  (None, 100)               0         \n",
            "                                                                 \n",
            " dropout_21 (Dropout)        (None, 100)               0         \n",
            "                                                                 \n",
            " hidden3 (Dense)             (None, 100)               10100     \n",
            "                                                                 \n",
            " batch_normalization_22 (Bat  (None, 100)              400       \n",
            " chNormalization)                                                \n",
            "                                                                 \n",
            " activation_22 (Activation)  (None, 100)               0         \n",
            "                                                                 \n",
            " dropout_22 (Dropout)        (None, 100)               0         \n",
            "                                                                 \n",
            " hidden4 (Dense)             (None, 50)                5050      \n",
            "                                                                 \n",
            " batch_normalization_23 (Bat  (None, 50)               200       \n",
            " chNormalization)                                                \n",
            "                                                                 \n",
            " activation_23 (Activation)  (None, 50)                0         \n",
            "                                                                 \n",
            " dropout_23 (Dropout)        (None, 50)                0         \n",
            "                                                                 \n",
            " output (Dense)              (None, 10)                510       \n",
            "                                                                 \n",
            "=================================================================\n",
            "Total params: 244,344\n",
            "Trainable params: 243,332\n",
            "Non-trainable params: 1,012\n",
            "_________________________________________________________________\n"
          ]
        }
…
